2_DeepLearningFramework/Cap10 - PyTorch/modelos/modelo_pt.pt (torch_old, 447169 bytes, 6 tensors)

weight f4 [128, 784]
0	0xbce19477	-0.027536614
1	0x3bed34f9	0.007238981
2	0x3c09ecf5	0.008418311
3	0x3c990f86	0.01868416
4	0x3ca809e4	0.020512529
5	0xbc9e6af0	-0.019338101
6	0x3c976d32	0.018484686
7	0xbcdd5d5c	-0.027022056
8	0x3c7ad9d7	0.015310726
9	0xbb3e7dd1	-0.0029066692
10	0xbbb2a275	-0.0054514953
11	0xbcb0cff9	-0.021583544
12	0x3c44869b	0.011994983
13	0x3c3b73b8	0.011441164
14	0xbd039d5e	-0.0321325
15	0xbb1cb5f3	-0.002391216
16	0x3cd7333e	0.026269551
17	0xbbb6a2d9	-0.005573612
18	0x3cde915a	0.027168918
19	0x3c6a8a99	0.014315271
20	0x3b8e1eea	0.0043371813
21	0x3cd04ea4	0.025428124
22	0xba6cf0fb	-0.00090385944
23	0x3c0e6827	0.008691824
24	0x3af77de6	0.0018882125
25	0xbca8fd19	-0.020628499
26	0xbd11409e	-0.035462014
27	0xbcafc02e	-0.021453943
28	0x3c9ac59a	0.018893052
29	0xbd03d2f3	-0.0321836
30	0x3ccbb87a	0.024868239
31	0x3c4f58ed	0.012655479
32	0x3c9620db	0.018326214
33	0x3b8e3de9	0.0043408764
34	0x3c82b9f6	0.015957814
35	0xbc47c18d	-0.012192142
36	0x3d0882c3	0.03332783
37	0xbbab8fba	-0.0052356394
38	0x3c5c98db	0.013464178
39	0x3bd16380	0.006390035
40	0x3d1c084c	0.03809385
41	0xbc720a77	-0.014773003
42	0x3c7c201c	0.015388515
43	0x3d05f5b7	0.032705035
44	0x3c284a56	0.010271629
45	0xbc8e0961	-0.017338457
46	0x3c199db3	0.009375977
47	0x3d0d0bb4	0.03443499
48	0x3c00a458	0.007851683
49	0xbca09d4c	-0.019606255
50	0x3c064774	0.008195747
51	0xbc448cf7	-0.011996499
52	0x3c05e438	0.008172087
53	0xba090c11	-0.0005227933
54	0xbcad537c	-0.021157973
55	0x3ce2fc3e	0.02770817
56	0xbcb15ab2	-0.021649692
57	0x3d0187db	0.031623702
58	0x3c5f0516	0.013612052
59	0x3d0c1115	0.03419598
60	0x3ca0a74c	0.019611023
61	0xbb9b8911	-0.004746564
62	0xbc7e81df	-0.015533893
63	0x3ce8df12	0.02842668
64	0xbc945db0	-0.01811108
65	0xbbba3f52	-0.005683818
66	0x3c190e22	0.009341748
67	0xbc3ba794	-0.011453528
68	0xbb66f3e5	-0.0035240587
69	0x3d1b6055	0.037933666
70	0xbcdceb67	-0.026967717
71	0x3bb9f34e	0.005674756
72	0xbcdb5dc6	-0.026778113
73	0x3ca48a56	0.020085495
74	0xbcb5b94c	-0.022183083
75	0x3bf71362	0.0075401524
76	0x3b6e8a7d	0.0036398463
77	0x3ba8bf6a	0.0051497715
78	0xbb9f2f66	-0.0048579453
79	0x3c5bfb5f	0.013426631
80	0xbcb07c93	-0.021543777
81	0x3c08603b	0.008323724
82	0xbb2d6300	-0.0026456714
83	0x3cb3e376	0.021959048
84	0x3cdad7a2	0.02671415
85	0x3cd5c0e2	0.02609295
86	0x3d05b7ce	0.032645993
87	0xbcaa3bff	-0.020780561
88	0xbcf9b823	-0.030483311
89	0xbd139ce7	-0.036038306
90	0xbcebbea6	-0.028777432
91	0xbca879b5	-0.020565847
92	0xbc808ea9	-0.015693026
93	0xbcb34459	-0.021883177
94	0xbc15080c	-0.009096157
95	0x3c5a1f6e	0.0133131575
96	0x3b9ae4ba	0.0047269734
97	0x3d5f4147	0.054505613
98	0x3c86d7a2	0.016460244
99	0x3d1e247e	0.03860902
100	0xbbb51187	-0.005525771
101	0xbc941093	-0.01807431
102	0x3ce88305	0.028382787
103	0x3cc1c86d	0.02365514
104	0x3bd36122	0.006450788
105	0x3c85b308	0.01632072
106	0xbcb14597	-0.021639628
107	0xbcde63a0	-0.027147114
108	0x3bd97796	0.00663657
109	0xbaaf14f7	-0.0013357688
110	0xbc485948	-0.012228318
111	0x3c953452	0.018213425
112	0x3c6f3c2d	0.014601749
113	0xbc42a753	-0.0118807135
114	0x3c0c6edf	0.008571356
115	0x3bee2ddc	0.0072686505
116	0xbab8b8ce	-0.0014093162
117	0xbc77ac2e	-0.015116734
118	0xbbdb81d7	-0.0066988277
119	0xbcd9001f	-0.026489316
120	0xbbf8f776	-0.007597859
121	0x3c1e6257	0.009667001
122	0x3ce7c02b	0.028289875
123	0x3c0c7626	0.008573091
124	0xbca5784c	-0.020198964
125	0x3c8f2e2e	0.017478075
126	0xbc4b3c81	-0.012404562
127	0x3cf83fe5	0.030303905
128	0x3d1ff98e	0.039056353
129	0xbc749daa	-0.014930168
130	0xbcbea32d	-0.023271168
131	0xbc4afaae	-0.012388868
132	0xbbabbd82	-0.005241097
133	0x3d07424c	0.03302221
134	0xbc1ddb13	-0.009634751
135	0x3ca501b1	0.020142408
136	0xbc5e9985	-0.013586407
137	0x3c36ef0d	0.011165393
138	0xb9c21e31	-0.00037025058
139	0x3cd290a0	0.025703728
140	0x3c0492f8	0.008091681
141	0xbd08b9eb	-0.03338043
142	0xbcc46741	-0.023975017
143	0xbc2261a2	-0.009910973
144	0xbd08ac3c	-0.03336738
145	0xbc88710f	-0.016655473
146	0x3c05cfd4	0.008167226
147	0xbcd5b905	-0.0260892
148	0x3ce43ccb	0.02786102
149	0x3d08ff6d	0.033446718
150	0x3b91e192	0.004451939
151	0xbd24fef6	-0.040282212
152	0x3bf0f52a	0.0073534446
153	0x3cea0fdb	0.028572014
154	0xbc9c6309	-0.019090192
155	0xbce4ea64	-0.027943797
156	0x3adc5016	0.0016808535
157	0xbc12a633	-0.008950758
158	0x3c7bfbae	0.015379829
159	0xbb34adb2	-0.002756935
160	0xbd0746ee	-0.03302663
161	0x3b926f39	0.004468825
162	0xbbc07c19	-0.0058741686
163	0xbce7e14c	-0.028305672
164	0x3b8f87f0	0.0043802187
165	0xbbbae556	-0.0057036085
166	0x3c2e5003	0.0106391935
167	0xbcee9e6f	-0.029128281
168	0xbd033bef	-0.03203958
169	0x3c7120d3	0.014717299
170	0x3cdfd422	0.027322832
171	0x3c098054	0.008392412
172	0xbb873ed9	-0.004127365
173	0xbc324db0	-0.01088278
174	0xbc0c13a2	-0.008549603
175	0xbcd63436	-0.026147943
176	0x3ce9c2e7	0.02853532
177	0xbc081f11	-0.008308188
178	0xbd159519	-0.036519144
179	0x3cbf33ff	0.023340223
180	0xbca773f6	-0.020441037
181	0x3b6c4942	0.0036054407
182	0xbcb32bf9	-0.021871554
183	0xbd2c9813	-0.042137217
184	0xbd8c00c6	-0.06836085
185	0x3b091924	0.0020919526
186	0xbc46e459	-0.012139403
187	0xbc432b95	-0.011912246
188	0xbd535456	-0.0515941
189	0xbc7b6e04	-0.015346054
190	0xbd24b1a6	-0.04020848
191	0xbcac7083	-0.021049744
192	0xbc245d42	-0.010032
193	0xbd17de7b	-0.03707741
194	0xba8f6253	-0.0010939337
195	0xbcbf6682	-0.02336431
196	0x3c213772	0.009839879
197	0x3c7802b9	0.015137368
198	0x3baebf68	0.005332876
199	0xbcc35006	-0.02384187
200	0x3ced2e84	0.028952844
201	0x3cb0f8f6	0.021603089
202	0xbc145b21	-0.00905493
203	0xbc9ccc1f	-0.019140301
204	0x3ce5c688	0.028048769
205	0xbc38de8a	-0.011283526
206	0xbc8bb212	-0.017052684
207	0x3d27f9e3	0.041009795
208	0xbcd135bd	-0.02553832
209	0xbc549e88	-0.01297725
210	0xbcecbaeb	-0.028897723
211	0xbcadcfc8	-0.021217242
212	0xbd6ac236	-0.05731412
213	0x3c67ee6f	0.014155968
214	0xbcef4091	-0.029205592
215	0xbb3f3ac9	-0.0029179326
216	0xbb178241	-0.002311841
217	0xbcf4bf68	-0.029876426
218	0xbafabe4f	-0.0019130203
219	0xbcfaddf7	-0.03062342
220	0xbd45e4e7	-0.048314
221	0x3c75489d	0.014970926
222	0x3ae90aca	0.0017779705
223	0xbd0992c2	-0.033587225
224	0x3cae4d6d	0.021277154
225	0x3c31500c	0.010822307
226	0xbcf140fe	-0.029449936
227	0x3c651650	0.0139823705
228	0xbc7137d7	-0.014722786
229	0x3c1f5958	0.009725891
230	0xbcb69bcb	-0.022291085
231	0x3c283aea	0.010267952
232	0x3d1cc583	0.0382743
233	0x3d58e77b	0.052955132
234	0xbc007535	-0.007840444
235	0x3c8b5dca	0.017012496
236	0x3c560489	0.013062605
237	0xbc32910f	-0.0108988425
238	0x3ca9cfae	0.020728912
239	0x3cbfd006	0.023414623
240	0xbd07b9e9	-0.033136282
241	0x3c5366c0	0.0129029155
242	0xbcad498d	-0.021153236
243	0xbd0755b9	-0.033040736
244	0x3c1cf467	0.009579754
245	0xbcc142e7	-0.023591472
246	0xbc0208f9	-0.00793671
247	0xbbae9e03	-0.005328895
248	0xbb162468	-0.0022909883
249	0xbd50cfe1	-0.0509795
250	0x3c4fb277	0.012676827
251	0x3ca4302a	0.020042498
252	0x3d09f17b	0.03367756
253	0xbce5607c	-0.028000109
254	0xbc72cbd1	-0.014819101
255	0x3cb4260d	0.0219908

bias f4 [128]
0	0x3c3239b7	0.010878018
1	0xbc8c4f02	-0.017127518
2	0x3cd1cba3	0.025609797
3	0x3b78996a	0.0037933239
4	0x3c580d35	0.013186743
5	0xbc55e50b	-0.013055096
6	0x3c861be5	0.016370723
7	0x3d095b86	0.03353455
8	0xbcfcda43	-0.030865794
9	0xbcc263bc	-0.023729198
10	0x3caa7dc2	0.02081192
11	0x3cb010c7	0.021492375
12	0x3ce159eb	0.027508697
13	0x3c830907	0.015995516
14	0x3b2f88fd	0.0026784532
15	0x3c59ab3b	0.013285453
16	0x3c470934	0.01214819
17	0x3be6032a	0.00701942
18	0xbc00e66f	-0.00786744
19	0xbcdebf77	-0.027190907
20	0x3ce6443e	0.028108712
21	0xbcb59999	-0.022167968
22	0xbd0b764e	-0.03404837
23	0x3cd94c78	0.026525721
24	0x3c8a3e8a	0.016875524
25	0x3d03561a	0.032064535
26	0xbc1e07f6	-0.009645453
27	0x3cc861a3	0.02446062
28	0xbcabc917	-0.02096991
29	0xbcc219b0	-0.02369389
30	0x3d032061	0.0320133
31	0x3c91e9c0	0.017811656
32	0xbd05a7e0	-0.0326308
33	0x3c7e2032	0.015510606
34	0xbc95873f	-0.018252967
35	0xbbff8aef	-0.0077985446
36	0x3c533ef4	0.012893427
37	0xbc5021df	-0.012703388
38	0x3b5cf065	0.0033712622
39	0x3cc13b31	0.023587795
40	0x3ba94bd9	0.0051665124
41	0x3a86e11d	0.0010290478
42	0xbc70ce47	-0.014697618
43	0x3cc6238f	0.024186878
44	0xbd107b8f	-0.035274085
45	0x3b5f3f3b	0.0034064788
46	0x3cbd99b0	0.023144573
47	0xbcbf27e7	-0.023334457
48	0x3cc0ac1f	0.023519574
49	0xbc77a94c	-0.015116047
50	0x375b2934	1.3063011e-05
51	0x3ca8740f	0.020563154
52	0xbcf716be	-0.030162212
53	0xba16acdd	-0.00057478045
54	0x3c60552b	0.013692181
55	0xbca33568	-0.019922927
56	0x3cf088ab	0.029362043
57	0xbc874dc5	-0.016516576
58	0xbb6183b4	-0.0034410777
59	0xbcbb1791	-0.022838386
60	0xbae62d32	-0.0017561077
61	0x3bc01fa2	0.005863146
62	0x3c286dba	0.010280067
63	0xbb2c8953	-0.0026326969
64	0xb820e22b	-3.8357608e-05
65	0x3cb3b769	0.021938043
66	0x3c47e2d5	0.012200077
67	0xbcf1d51a	-0.02952056
68	0xbcf3b434	-0.029749013
69	0x3ce45b0b	0.027875444
70	0xbc4462bf	-0.0119864335
71	0xbcb3d592	-0.021952424
72	0xbc496ea2	-0.012294443
73	0x3c23db66	0.010001039
74	0xbca8216c	-0.02052375
75	0x3d07dfeb	0.03317253
76	0xbd024490	-0.031803668
77	0x3bdcf285	0.006742778
78	0xb9deb7ce	-0.00042480085
79	0xbc5bfa0b	-0.013426314
80	0xbc1492c6	-0.009068197
81	0xbd1bcfb5	-0.03803988
82	0x3c99a491	0.01875523
83	0xbcd86656	-0.026415985
84	0xbb1043ed	-0.0022013143
85	0xbca1c055	-0.019745031
86	0xbc13edf2	-0.009028899
87	0x3c2bbe4d	0.010482383
88	0xbb30e96a	-0.0026994594
89	0xbbc54d19	-0.0060211536
90	0xbcea6a60	-0.028615177
91	0xbc547989	-0.012968429
92	0xbc8e6f2f	-0.017387
93	0xbc94cf18	-0.018165156
94	0xbcb7fad6	-0.022458475
95	0x3d0a16e2	0.03371323
96	0x3ad41276	0.0016179818
97	0xbc833f06	-0.016021263
98	0x3cda7a9c	0.026669793
99	0xbcf8c05f	-0.030365167
100	0xbca50b97	-0.020147128
101	0x3c0ee0b4	0.008720566
102	0xba9af130	-0.0011821147
103	0xbc6c8780	-0.014436603
104	0x3cd9c75a	0.026584316
105	0x3ca676fc	0.020320408
106	0x3cde6ba7	0.027150942
107	0x3ce72688	0.028216615
108	0x3ae5dd9e	0.001753736
109	0x3bb11aea	0.0054048197
110	0x3cd2b382	0.025720362
111	0x3bf752e2	0.007547722
112	0x3d09652a	0.033543743
113	0xbcff9f3b	-0.031203857
114	0x3d0faff0	0.035079896
115	0x3b10b8eb	0.0022082876
116	0x3cecce62	0.028907005
117	0xbc47768d	-0.012174261
118	0xbcfa8011	-0.030578645
119	0x3cbac161	0.022797288
120	0xbcf7fec1	-0.030272843
121	0xbceab70a	-0.028651733
122	0xbcf942c9	-0.030427353
123	0x3ca5274e	0.020160343
124	0x3ca51b21	0.020154538
125	0x3cc4524f	0.023965029
126	0x3abf02c6	0.001457297
127	0x3b4d9204	0.003136755

weight f4 [64, 128]
0	0xbb10984e	-0.0022063437
1	0xbe2a7ca6	-0.16649112
2	0xbbf22723	-0.0073899194
3	0xbd9e5b7f	-0.07732295
4	0x3d530137	0.05151483
5	0xbc1e346e	-0.009656055
6	0xba00e3c1	-0.00049167505
7	0xbd26cd3e	-0.040723078
8	0x3d42ef5c	0.047591552
9	0xbdbc0aa1	-0.09181715
10	0x3ce714f1	0.028208228
11	0x3c40a4e0	0.011758059
12	0xbdc5195b	-0.09623977
13	0xbb6b29de	-0.003588311
14	0x3e027262	0.12738946
15	0x3cc5801c	0.024108939
16	0xbd7231af	-0.059129413
17	0x3e38e8d4	0.18057567
18	0x3b702294	0.0036641704
19	0xbd088843	-0.033333074
20	0x3d911e0a	0.070858076
21	0x3b1c6579	0.0023864193
22	0xbdb16a4e	-0.08662854
23	0xbd9bcf67	-0.07607918
24	0x3d67a023	0.056549203
25	0x3a979fe8	0.0011568042
26	0xbd80501b	-0.06265279
27	0xbce39b7a	-0.027784098
28	0xbaabba0b	-0.001310171
29	0xbb01220e	-0.0019704136
30	0xbdcfb339	-0.10141606
31	0x3cc5cb82	0.024144892
32	0x3df5ae9e	0.11996196
33	0xbd1aa5c9	-0.03775576
34	0x3de7c922	0.1131766
35	0x3c89f0d9	0.016838478
36	0x3d9eb0b3	0.077485465
37	0x3d0388f1	0.03211302
38	0x3e091fd1	0.13391043
39	0x3d478b9b	0.048717123
40	0xbba1f6f6	-0.00494277
41	0xbddfed81	-0.10933972
42	0x3d91741b	0.071022235
43	0xbd902a44	-0.070393115
44	0xbd76633a	-0.060153224
45	0x3cb55e45	0.022139678
46	0x3d2e9eb4	0.04263182
47	0x3d673d77	0.0564551
48	0x3de36405	0.111030616
49	0xbc4ec60d	-0.012620461
50	0x3d9d4fa5	0.076812066
51	0xbdaccccb	-0.08437499
52	0x3bfcbd01	0.0077129607
53	0xbdee575b	-0.116377555
54	0x3d5a1cec	0.05325024
55	0x3e18f9b9	0.14939012
56	0xbbc58b58	-0.006028574
57	0xbd3e61cf	-0.046479996
58	0xbde6b1ca	-0.11264379
59	0xbd410161	-0.047120456
60	0xbd8fd7aa	-0.070235565
61	0x3d4afbb4	0.04955645
62	0xbd7dca45	-0.061960477
63	0xbcd6e97f	-0.026234386
64	0xbc88318e	-0.016625192
65	0xbda4a0c6	-0.080384776
66	0xbbe3f39d	-0.006956531
67	0x3d633bae	0.055476837
68	0x3d3e54d9	0.046467636
69	0xbcab808c	-0.02093532
70	0xbd8ce821	-0.068802126
71	0x3da6a981	0.08137799
72	0x3e02cbd9	0.12773074
73	0x3b3fc1fc	0.002925991
74	0x3d9e1e7c	0.07720658
75	0x3d807f48	0.06274277
76	0xbc86f870	-0.016475886
77	0x3db50df7	0.08840554
78	0xbb89feca	-0.0042112814
79	0xbd1b77f2	-0.037956186
80	0xbc0d679c	-0.008630659
81	0x3d93c215	0.072147526
82	0xbd3041cb	-0.043031495
83	0xbda6e8c7	-0.081498675
84	0xbdb95790	-0.09049904
85	0xbdea479e	-0.11439441
86	0x3d5889d9	0.052865837
87	0x3d98ee66	0.07467346
88	0xbd52e8cc	-0.051491544
89	0x3d55e697	0.05222186
90	0xbd9cd74d	-0.07658253
91	0x3b217dd9	0.0024641661
92	0xbdaf39c7	-0.08555942
93	0xbd5326c7	-0.051550653
94	0xbc946b7d	-0.01811766
95	0x3d6a1a43	0.05715395
96	0xbdf7d426	-0.12101011
97	0x3d18c304	0.037295356
98	0x3d02c6fc	0.031928048
99	0xbdb61b57	-0.088919334
100	0xbd557710	-0.0521155
101	0xbd78281c	-0.060585126
102	0xbdb708da	-0.08937235
103	0xbd388b5e	-0.045054786
104	0x3c300787	0.010743982
105	0x3dd26333	0.10272827
106	0x3d86ab76	0.06575672
107	0xbdf414b9	-0.11918015
108	0xbcefd850	-0.02927795
109	0x3e076b55	0.13224538
110	0xbd8e285c	-0.06941292
111	0xbdad39a1	-0.084582575
112	0x3d0b7604	0.034048095
113	0xbda18050	-0.07885802
114	0x3bb70cbe	0.005586236
115	0xbcb79bea	-0.022413213
116	0x3d585423	0.052814614
117	0x3d46d974	0.048547223
118	0xbd7590ff	-0.059952732
119	0x3d9c2fd3	0.07626309
120	0x3d8cad21	0.06868959
121	0x3d2d823b	0.042360526
122	0x3bbfe720	0.0058564097
123	0x3d13d91d	0.036095727
124	0x3deed5fa	0.116619065
125	0xbd1a3285	-0.037645835
126	0xbd3892f4	-0.04506202
127	0x3e0558ad	0.13022108
128	0x3c924c00	0.017858505
129	0xbc4a58da	-0.012350285
130	0xbcd72269	-0.026261525
131	0xbd8a40bc	-0.06750628
132	0xbc1063af	-0.008812829
133	0xbd928a55	-0.07155291
134	0xbd8d44cb	-0.06897887
135	0xbd96f072	-0.0737008
136	0x3da99840	0.082809925
137	0xbd30e677	-0.04318854
138	0x3b1a8d60	0.0023582801
139	0xbd8200f4	-0.06347838
140	0x3d8e6124	0.06952122
141	0xbda43121	-0.08017183
142	0xbb2fc353	-0.0026819303
143	0xbd0f082b	-0.0349199
144	0xbd6afda9	-0.057370815
145	0x3da34170	0.079714656
146	0xbda6de41	-0.0814786
147	0x3d5bb8c0	0.05364299
148	0xbd789258	-0.06068644
149	0x3d66db15	0.056361277
150	0xbbdf425c	-0.0068133306
151	0x3c774b26	0.0150936
152	0xbd67b25d	-0.056566585
153	0xbcb0a7f2	-0.021564458
154	0xbd4aa72e	-0.04947584
155	0x3d29697f	0.041360375
156	0x3ca691b9	0.020333158
157	0xbd995c23	-0.07488277
158	0x3d59ec35	0.05320378
159	0x3d4a8440	0.04944253
160	0xbbf94f19	-0.007608306
161	0xbd3c9649	-0.04604176
162	0xbdb4e0ea	-0.088319615
163	0x3b51bfa3	0.0032005094
164	0x3b5fa841	0.0034127387
165	0xbd4519db	-0.04812036
166	0x3c863420	0.016382277
167	0xbcf5d476	-0.030008536
168	0xbd65690d	-0.056008387
169	0x3d4f7ab3	0.050654124
170	0xbd33b518	-0.043873876
171	0xbd5ecee2	-0.054396518
172	0x3c99892c	0.018742166
173	0x3cff8e7d	0.031195873
174	0x3c5b4813	0.013383883
175	0xbc9eaeb7	-0.01937042
176	0xbd485c5f	-0.048916217
177	0x3bff82f8	0.007797595
178	0x3c997a70	0.01873514
179	0x3d2499e7	0.040185835
180	0xbd580be9	-0.052745733
181	0x39e5333d	0.0004371646
182	0x3daac477	0.08338254
183	0xbd9cc91e	-0.076555476
184	0xbdae7052	-0.08517517
185	0xbd570632	-0.052496143
186	0x3d81f6eb	0.06345924
187	0xbcbd4cce	-0.023107912
188	0x3da758e7	0.08171254
189	0x3c84ee0c	0.01622679
190	0xbcf00674	-0.029299952
191	0x3cb52d4a	0.022116322
192	0x3ccdb3bc	0.025110118
193	0xbc3eb46e	-0.0116396975
194	0x3d1f4de8	0.038892657
195	0xbb64af04	-0.0034894357
196	0x3d0e3bc8	0.03472498
197	0x3d9b50a3	0.075837396
198	0x3d0e2014	0.03469856
199	0x3d010b54	0.031504944
200	0xbc16212b	-0.009163181
201	0x3d41456f	0.047185358
202	0x3bc16620	0.005902067
203	0xbd8c1bbd	-0.06841228
204	0x3d621374	0.055194333
205	0xbd6bf60a	-0.057607688
206	0x3d891a91	0.0669452
207	0xbd20b7ad	-0.039237667
208	0xbd6841a3	-0.05670322
209	0xbd48148e	-0.048847727
210	0x3d213590	0.03935772
211	0xbcb7c935	-0.02243481
212	0xbdaa9050	-0.08328307
213	0x3ce0ef6e	0.027457919
214	0x3d29d963	0.04146708
215	0xbd8bb333	-0.06821289
216	0xbd950ce0	-0.07277846
217	0x3ccf61f3	0.02531526
218	0xbd9c226a	-0.076237515
219	0x3db38571	0.08765686
220	0xbd591034	-0.052993968
221	0xbc5bfe60	-0.013427347
222	0x3bda9cc2	0.006671519
223	0x3cfc9382	0.030832056
224	0xbdac56f9	-0.08415026
225	0x3d38c784	0.045112148
226	0xbda65dcb	-0.08123358
227	0xbd71dbdd	-0.05904757
228	0xbd0b4632	-0.03400249
229	0x3d699e16	0.057035528
230	0xbd517058	-0.05113253
231	0xbb733d13	-0.003711526
232	0x3d81387f	0.06309604
233	0x3aed57e8	0.0018107863
234	0x3d786b47	0.060649183
235	0xbafaf2e7	-0.0019145877
236	0x3d8900c5	0.066896
237	0x3d29274b	0.04129724
238	0xbc84f7e7	-0.01623149
239	0x3d057578	0.03258273
240	0xbd0d058e	-0.034429125
241	0xbd5d8704	-0.05408384
242	0x3c34463e	0.011003075
243	0x3d8489ea	0.064716175
244	0x3d8200cc	0.06347808
245	0x3d8031ab	0.062594734
246	0xbd16cb62	-0.036815055
247	0x3cdd233f	0.026994346
248	0x3c80771d	0.015681798
249	0x3d21eb33	0.039530944
250	0x3d985269	0.074375935
251	0xbd3c668f	-0.045996245
252	0xbcaefe85	-0.021361599
253	0xbdae9def	-0.08526217
254	0xbdac4b4b	-0.084127985
255	0x3d2a8bd7	0.041637268

bias f4 [64]
0	0xbd3be55f	-0.045873042
1	0x3d69d06c	0.057083532
2	0x3d713ee3	0.058897864
3	0x3d5314a0	0.05153334
4	0xbce07a1a	-0.027401973
5	0x3dc521e5	0.096256055
6	0x3d7c77ce	0.061637692
7	0xbd83b427	-0.06430846
8	0xbd931c2e	-0.07183109
9	0xbcc45e70	-0.023970813
10	0x3bf4f0d5	0.0074749985
11	0xbd223f0e	-0.039610915
12	0x3ca707fd	0.020389551
13	0x3c1bc9de	0.009508578
14	0xbdb859a2	-0.09001471
15	0x3d2f453f	0.042790648
16	0x3d96a3ce	0.07355462
17	0xbd17df3d	-0.03707813
18	0xbdae6b56	-0.085165665
19	0xbd92145f	-0.07132792
20	0x3d8d7358	0.06906766
21	0xbbc48a86	-0.0059979586
22	0xbcab1e92	-0.0208886
23	0xbd5cd0f1	-0.0539102
24	0x3cf092c5	0.02936686
25	0xbce396d2	-0.027781878
26	0xbd3deb6b	-0.04636709
27	0x3d8c662f	0.068554275
28	0xbc4c91fc	-0.012485977
29	0xbc954cad	-0.018225038
30	0x3caaaf02	0.020835403
31	0x3d34c77e	0.044135563
32	0x3d166586	0.036717914
33	0xbd7bbf81	-0.06146193
34	0x3ca7be28	0.020476416
35	0xbbef0652	-0.0072944546
36	0x3d35fbea	0.044429697
37	0x3cc4071a	0.023929168
38	0x3d50d054	0.050979927
39	0xbd373926	-0.044732235
40	0x3cadd665	0.021220395
41	0x3d50a2e3	0.05093659
42	0xbd879581	-0.066203125
43	0x3c5b81ed	0.013397676
44	0x3d9392fd	0.0720577
45	0x3d172110	0.036896765
46	0x3db8be75	0.09020702
47	0x3d2ae637	0.041723456
48	0x3cf81206	0.030282032
49	0xbdad01f8	-0.08447641
50	0xbd0e413f	-0.034730192
51	0xbd83e637	-0.06440394
52	0x3c9a5190	0.01883772
53	0xbd42d3f0	-0.0475654
54	0x3d853aea	0.065053776
55	0xbcba20b4	-0.022720672
56	0x3d9f68f4	0.0778369
57	0x3d5b252f	0.053502258
58	0x3d1aa9d9	0.037759636
59	0x3d36f275	0.04466482
60	0x3d7423bd	0.059604395
61	0x3da459ec	0.08024964
62	0x3d7439b7	0.059625354
63	0xbc6226d8	-0.013803206

weight f4 [10, 64]
0	0x3bd4c5d7	0.006493311
1	0xbbb1300d	-0.0054073394
2	0xbcef06b1	-0.029177995
3	0xbd67adcf	-0.05656224
4	0x3d8931f8	0.06698984
5	0xbd15f8ce	-0.03661423
6	0xbeb4ee76	-0.3533818
7	0xbed71f4c	-0.42016065
8	0xbe29e521	-0.16591312
9	0xbe27aeeb	-0.1637532
10	0x3eb96edc	0.36217391
11	0xbdbd2288	-0.09235102
12	0x3e5d8bad	0.21635313
13	0xbe2803b6	-0.16407666
14	0xbdff25eb	-0.12458404
15	0xbda29490	-0.07938492
16	0x3eb56ec2	0.35436064
17	0x3e684c76	0.22685418
18	0xbcd67149	-0.026177065
19	0x3de16146	0.110048816
20	0x3dee15ed	0.11625276
21	0x3def0be0	0.11672187
22	0x3c0781c3	0.008270684
23	0x3e819d56	0.2531535
24	0x3dca412a	0.0987571
25	0xbca36eb4	-0.019950248
26	0xbdd92aad	-0.10603843
27	0xbeaffd5b	-0.34372982
28	0xbd860061	-0.06543041
29	0x3ede6c44	0.43441975
30	0xbd5b2cec	-0.053509638
31	0x3d9174f7	0.071023874
32	0xbd1fc24e	-0.039003663
33	0x3cb50df7	0.022101386
34	0x3e6707da	0.22561589
35	0x3d91a9e3	0.071124814
36	0x3e45d688	0.19320118
37	0x3e6a35b5	0.2287205
38	0xbd8640af	-0.06555306
39	0xbd6d1973	-0.0578856
40	0xbed51e29	-0.41624573
41	0x3e63adf7	0.22234331
42	0x3db72870	0.0894326
43	0x3dbca7df	0.09211706
44	0xbed95d67	-0.42454073
45	0xbb253ffe	-0.0025215144
46	0xbe4cc58c	-0.19997233
47	0x3d606090	0.05477959
48	0xbe72920e	-0.23688528
49	0xbe38aecc	-0.1803543
50	0xbe36a278	-0.17835414
51	0x3ea25404	0.31704724
52	0xbe9b17b0	-0.3029151
53	0x3e7780c6	0.24170217
54	0x3ef4317e	0.4769401
55	0xbe1aa99f	-0.15103768
56	0xbde12573	-0.10993471
57	0xbeb22df3	-0.3480068
58	0x3d49e392	0.049289294
59	0x3cd7693e	0.0262953
60	0x3e3a2a63	0.18180232
61	0x3d3cdff8	0.04611203
62	0x3d2c1503	0.042012226
63	0x3dd7f5c9	0.10544927
64	0x3e54cab8	0.20780456
65	0x3debe462	0.1151817
66	0xbe92a50e	-0.28641552
67	0x3e8d6470	0.2761569
68	0x3e0a0c7c	0.13481325
69	0x3d7e517c	0.06208943
70	0x3eabb31d	0.3353509
71	0x3eb8d74c	0.36101758
72	0xbe8eeea3	-0.2791644
73	0x3e44abb4	0.19206125
74	0x3e25aa95	0.16178353
75	0xbd8c3ac5	-0.06847147
76	0x3c3c0d62	0.0114778
77	0xbe0656e1	-0.13119079
78	0x3f05d814	0.52282834
79	0x3e8c8da2	0.27451807
80	0xbd9eae58	-0.07748097
81	0xbe2be625	-0.16787012
82	0x3c9e2dcf	0.019308953
83	0x3ed80a4b	0.42195353
84	0xbe64aa4a	-0.22330585
85	0x3ddf1bf5	0.10894004
86	0x3de7b7b3	0.11314335
87	0xbd50b5d7	-0.050954666
88	0xbdf46877	-0.119339876
89	0x3e756eb2	0.23968008
90	0x3dfb2ee0	0.122648
91	0x3e5c13e1	0.21491958
92	0x3d6b090a	0.057381667
93	0xbe6f4361	-0.23365547
94	0xbdd20093	-0.10254016
95	0x3c60db5b	0.013724173
96	0x3d09cfb8	0.03364536
97	0x3d8cd4b5	0.06876508
98	0xbe498fae	-0.19683716
99	0xbdd6985e	-0.104782805
100	0xbf04b29c	-0.51835036
101	0xbe4724c2	-0.19447616
102	0x3c81336c	0.01577159
103	0xbea31d0b	-0.31858096
104	0xbdfa5773	-0.12223711
105	0x3d56c6a7	0.052435543
106	0x3c445d18	0.011985086
107	0xbed807c1	-0.42193416
108	0x3eaa99ef	0.33320567
109	0xbd940d08	-0.07229048
110	0x3cb577ec	0.02215191
111	0x3dfac04b	0.12243708
112	0x3eb01ec2	0.34398466
113	0x3d31de82	0.04342509
114	0x3d9ce8ce	0.076615915
115	0xbe76a886	-0.24087724
116	0xbe9d1713	-0.30681667
117	0x3eb5a651	0.35478452
118	0xbec00081	-0.37500384
119	0x3dba9fef	0.09112536
120	0x3cd3b685	0.025843868
121	0x3dc665fd	0.096874215
122	0xbcc9af26	-0.02461965
123	0xbe20a2e3	-0.15687136
124	0x3daebf90	0.085326314
125	0x3b8937d8	0.0041875653
126	0x3eae55ca	0.34049827
127	0xbe4aa356	-0.1978887
128	0xbd3e4de1	-0.04646099
129	0x3dcb84e7	0.099374585
130	0xbbd8ab49	-0.0066122157
131	0xbe507359	-0.20356502
132	0xbeb1a756	-0.3469798
133	0x3c96c60f	0.018404989
134	0x3e16984c	0.14706534
135	0x3f01fbb9	0.50774723
136	0x3d852dee	0.06502901
137	0xbdaf967a	-0.08573623
138	0xbe2a7e84	-0.16649824
139	0xbdffc9ac	-0.12489638
140	0xbe060df9	-0.13091268
141	0xbda3f8aa	-0.08006413
142	0x3efbcf2c	0.49181497
143	0xbdb44093	-0.08801379
144	0x3e5eeb86	0.21769533
145	0x3e8c6d11	0.2742696
146	0xbdbd9f58	-0.09258908
147	0x3e97a023	0.29614362
148	0xbdae0d1b	-0.084985934
149	0xbe03a59f	-0.12856148
150	0xbdad44e6	-0.08460407
151	0x3c2d137a	0.010563726
152	0x3ed04be3	0.40682897
153	0xbdd4bfdb	-0.10388156
154	0x3d6ea54a	0.0582631
155	0x3e23e5cf	0.16005634
156	0xbce845c3	-0.028353577
157	0x3e88f5be	0.26749986
158	0xbd0fe090	-0.03512627
159	0x3da69269	0.08133394
160	0x3e1f5452	0.1555951
161	0x3d00a9c7	0.031411912
162	0xbde29604	-0.110637695
163	0x3c751b4c	0.014960121
164	0x3e944a80	0.2896309
165	0x3f008271	0.5019904
166	0xbc204775	-0.009782662
167	0xbe3c5c3c	-0.1839456
168	0x3e0e2453	0.13881044
169	0x3c403486	0.011731273
170	0xbefd3567	-0.49454805
171	0x3d83e619	0.06440372
172	0xbe3d6964	-0.18497235
173	0xbbb11f7d	-0.005405365
174	0x3e24f7d2	0.16110161
175	0x3ce46f55	0.027885118
176	0x3d90da70	0.07072914
177	0xbb1b5994	-0.0023704516
178	0x3ebe7532	0.37198788
179	0xbda7f178	-0.082003534
180	0xbeb693ef	-0.3565974
181	0xbe86b963	-0.26313314
182	0x3dc1a62b	0.09455522
183	0xbd954dd9	-0.07290239
184	0x3ea2b08f	0.3177533
185	0xbedaf1cf	-0.4276261
186	0xbcd21cb7	-0.025648458
187	0xbf103bbf	-0.56341165
188	0xbe165cd6	-0.14683852
189	0xbe0ac7fc	-0.1355285
190	0xbe7cbc01	-0.24681093
191	0xbeaf29ff	-0.34211728
192	0xbde791ff	-0.113071434
193	0x3dfb6129	0.12274391
194	0x3ec9c7c9	0.39410236
195	0x3e999297	0.29994652
196	0x3da3cd2e	0.07998119
197	0xbec5cca2	-0.38632685
198	0x3cfab465	0.030603597
199	0xbe2438fc	-0.16037363
200	0x3dd80549	0.10547883
201	0x3e9c91fb	0.30580124
202	0xbe5839d1	-0.21115805
203	0xbb8f0a9d	-0.004365279
204	0x3e6f56ee	0.23373005
205	0xbc8a08b0	-0.016849846
206	0x3dbb9624	0.091594964
207	0xbe9cbf2d	-0.30614606
208	0x3d9b029f	0.07568859
209	0xbe373297	-0.17890392
210	0x3dd57316	0.104223415
211	0x3ea7feae	0.32811493
212	0xbcc663c2	-0.02421749
213	0xbda501d5	-0.0805699
214	0xbe02f3d8	-0.12788332
215	0xbec7de94	-0.39037
216	0xbebc078d	-0.3672451
217	0xbe4b43bf	-0.19850062
218	0x3dc7d3f0	0.09757221
219	0x3c62618d	0.013817203
220	0xbcd4558f	-0.025919704
221	0x3dcbaa4d	0.09944592
222	0x3dde1b42	0.10845043
223	0xbdd0e342	-0.10199596
224	0xbd426718	-0.0474616
225	0x3d660690	0.056158602
226	0xbe24b850	-0.16085935
227	0x3e7dd3c3	0.24787812
228	0x3e33a7f0	0.17544532
229	0xbe9f0d1d	-0.31064692
230	0x3e4e07a3	0.201201
231	0xbe6847a0	-0.22683573
232	0x3c0c4235	0.008560707
233	0x3dce6fa8	0.100798905
234	0x3ede0c93	0.43368968
235	0x3ca7108f	0.020393638
236	0x3eb881d1	0.36036542
237	0x3cd84f5f	0.026405035
238	0xbdda0bf6	-0.106468126
239	0x3dbf90db	0.09353801
240	0x3efb614f	0.49097678
241	0xbd48bc05	-0.049007434
242	0x3f0fcfa7	0.5617623
243	0x3d96e701	0.07368279
244	0x3c9a5bd0	0.018842608
245	0xbb588bbd	-0.0033042275
246	0xbe51c1c4	-0.20484072
247	0x3e06188a	0.13095298
248	0x3d5a98ea	0.053368486
249	0xbe9db17c	-0.30799472
250	0x3d6c0aae	0.057627372
251	0xbe5c9260	-0.21540213
252	0xbd4f50b5	-0.050614078
253	0xbe99fdd5	-0.3007647
254	0xbe992dcb	-0.2991775
255	0xbe0a5602	-0.13509372

bias f4 [10]
0	0x3db09e3e	0.08623932
1	0xbdf7bc97	-0.120965175
2	0x3d0c4a15	0.034250338
3	0xbdb8bef7	-0.09020799
4	0x3dc67cc8	0.09691769
5	0x3d64693e	0.05576443
6	0xbcfa5c64	-0.030561633
7	0xbda3d45a	-0.07999487
8	0x3dc46a5d	0.095906
9	0x3cb83eb1	0.022490831
